trained_models/gridworld_more_seeds/5/ppo-0/ppo/MiniGrid-Empty-5x5-v0.pt (torch_old, 132578 bytes, 15 tensors)

weight f4 [16, 12, 2, 2]
0.2457378 0.25473505 0.51003397 -0.04849969 -0.12099236 0.065232605 -0.29054028 -0.15646732
0.036826916 0.30447963 0.17163882 0.014705584 -0.27116567 0.07236442 0.060177434 0.30249974
-0.124275975 -0.05748799 -0.011002766 0.14570685 0.08636374 0.035321828 -0.007523623 0.1775371
0.47241253 0.0016073731 0.1393789 -0.17861173 0.040268026 0.40827137 0.056195512 0.024750456
-0.0012603438 0.26179892 -0.089985386 0.20168474 -0.16822879 0.22691257 0.26560694 -0.0007008533
0.017681083 -0.1384196 -0.51661205 0.0461124 -0.009890082 0.21683468 0.22900629 0.06394955
-0.10533548 0.11056036 -0.17193002 0.037854627 0.085884355 0.46831217 0.118759744 0.0011456682
0.6773685 0.13148582 -0.3211253 0.04860721 0.18825212 -0.19730338 -0.1417335 0.20538592
-0.00015033758 -0.058614213 0.22606754 0.025857223 0.023206865 -0.30338204 0.22722213 -0.034172505
-0.20896992 -0.18795624 0.3675011 -0.07844741 -0.06106755 0.17683382 0.10695323 -0.18376017
0.11042339 0.0076299966 0.049611133 -0.04362146 -0.056862604 0.12980182 -0.1166317 0.24717084
-0.3484418 -0.0218823 -0.043440506 -0.20922242 -0.059143912 -0.09106874 0.42636988 -0.11425258
-0.19751322 0.3032215 0.068767734 0.014911921 0.20331796 -0.028764252 -0.2590522 -0.5234933
-0.20552632 0.39096648 0.16069461 0.11288332 0.318535 -0.11800353 -0.10479565 0.13570935
0.18656087 0.3593771 0.18407169 -0.26305225 -0.11325504 0.29260895 -0.061410632 -0.21929057
-0.19046487 -0.020583583 -0.17887872 0.27372563 0.18889903 -0.17490649 0.26238304 -0.060888413
-0.14476466 0.1385954 -0.038672835 0.009792821 -0.017621195 0.14893207 0.19683039 -0.16312593
-0.008091866 0.13780442 0.16845071 -0.34725994 -0.1565967 0.054129966 0.2219074 -0.16811773
-0.4689118 -0.5920873 -0.58625793 -0.39393628 -0.8844992 -0.7775158 -0.96287656 -0.9492849
-0.022688312 0.111001015 0.14020142 -0.08333557 -0.60398936 -0.32729852 -0.7191258 -0.3208379
-1.1136621 -1.4334148 -0.9259306 -0.9175212 0.033084173 0.27467299 0.22320543 0.17118816
-0.74668413 0.3669 -0.31806383 -0.27909237 -1.2444006 -1.6076342 -0.83865 -1.1980458
-0.012333232 -0.3138915 0.33763528 -0.18133378 0.026421325 -0.12760523 -0.17796332 -0.4556524
-0.7542366 -0.4550247 -1.1039473 -0.06176398 0.13396713 0.021466251 0.15992819 0.11712823
-0.51696867 -0.32397944 -0.34794015 -0.17357954 -0.3558072 -0.5649636 -0.5997882 -0.4823544
0.21288407 -0.12167513 -0.13783127 0.18041137 -0.7223975 -0.5142659 -0.94171864 0.19743107
-0.81607956 -0.78077596 -0.6139805 -0.37655878 0.3391518 -0.17275663 -0.31549385 -0.07420152
-0.28601423 0.49198338 -0.45996967 -0.23878534 -0.65375257 -2.1842034 -0.84437275 -1.9313825
0.11134093 0.11171139 -0.05276768 -0.14811727 0.37963358 0.8699324 0.019168738 -1.3487895
-0.8267677 -1.7816467 -1.5330837 -2.1190922 -0.20310241 -0.26137322 -0.0019467624 -0.41457102
-0.14979464 0.051600397 0.31212252 -0.13669966 0.16995929 -0.08956733 0.023120595 -0.23058
-0.33488536 -0.19180308 0.014404649 0.43447083 0.10750409 -0.13642696 0.18122482 -0.3094235
00000000: b1a2 7b3e a26c 823e 9691 023f 9ca7 46bd
00000010: d8ca f7bd ac98 853d b2c1 94be f838 20be
00000020: d2d7 163d c1e4 9b3e 16c2 2f3e b1ef 703c
00000030: 3ad6 8abe cc33 943d 9d7c 763d 3fe1 9a3e
00000040: 6784 febd 8778 6bbd f244 34bc 2d34 153e
00000050: 79df b03d 9fad 103d b988 f6bb 49cc 353e
00000060: 0ee0 f13e 7eae d23a 58b9 0e3e fee5 36be
00000070: 16f0 243d f208 d13e 442d 663d 78c1 ca3c
00000080: 1f32 a5ba 820a 863e 424a b8bd 7286 4e3e
00000090: 2b44 2cbe c55b 683e a2fd 873e 78b9 37ba
000000a0: ebd7 903c debd 0dbe b040 04bf 5be0 3c3d
000000b0: 030a 22bc e909 5e3e a080 6a3e fbf7 823d
000000c0: 21ba d7bd 786d e23d 6c0e 30be 740d 1b3d
000000d0: 23e4 af3d 9dc6 ef3e 4f38 f33d 3f2a 963a
000000e0: 0668 2d3f 38a4 063e 896a a4be 5b18 473d
000000f0: 2ac5 403e e609 4abe 9622 11be b050 523e
00000100: f0a3 1db9 7515 70bd 407e 673e 87d2 d33c
00000110: 531c be3c e454 9bbe ebac 683e 78f8 0bbd
00000120: 36fc 55be 9a77 40be 1b29 bc3e 09a9 a0bd
00000130: f821 7abd ed13 353e 4c0a db3d a02b 3cbe
00000140: a925 e23d 0d05 fa3b 0b35 4b3d 6bac 32bd
00000150: c3e8 68bd c5ea 043e 9adc eebd 5a1a 7d3e
00000160: f766 b2be 8242 b3bc acee 31bd 673e 56be
00000170: e340 72bd 3f82 babd 274d da3e 42fd e9bd
00000180: e840 4abe d93f 9b3e 19d6 8c3d 2151 743c
00000190: 9532 503e 02a3 ebbc 7da2 84be a803 06bf
000001a0: 7e75 52be c22c c83e 218d 243e 5f2f e73d
000001b0: 0517 a33e d6ab f1bd 1a9f d6bd 64f7 0a3e
000001c0: d009 3f3e 4600 b83e 4a7d 3c3e c9ae 86be
000001d0: 42f2 e7bd d7d0 953e b789 7bbd b58d 60be
000001e0: 3909 43be e79e a8bc fc2b 37be c425 8c3e
000001f0: bf6e 413e b01a 33be 1257 863e 2166 79bd
00000200: 303d 14be f4eb 0d3e 6867 1ebd 1172 203c
00000210: 535a 90bc a681 183e e88d 493e 7c0a 27be
00000220: bf93 04bc 9a1c 0d3e 587e 2c3e 0ecc b1be
00000230: e35a 20be 62b7 5d3d b23b 633e 0e27 2cbe
00000240: 3515 f0be 0993 17bf 0015 16bf 04b2 c9be
00000250: 8a6e 62bf 470b 47bf 147f 76bf 5604 73bf
00000260: d7dc b9bc 8054 e33d f690 0f3e d7ab aabd
00000270: 0c9f 1abf ac93 a7be a118 38bf dd44 a4be
00000280: 7b8c 8ebf 237a b7bf ca09 6dbf abe2 6abf
00000290: 4583 073d f0a1 8c3e f78f 643e f34b 2f3e
000002a0: b126 3fbf 51da bb3e 43d9 a2be 32e5 8ebe
000002b0: 8548 9fbf f5c6 cdbf c4b1 56bf 9159 99bf
000002c0: 5311 4abc 63b6 a0be 88de ac3e 90af 39be
000002d0: 8971 d83c f2aa 02be 043c 36be 454b e9be
000002e0: a615 41bf fff8 e8be 254e 8dbf 3afc 7cbd
000002f0: ae2e 093e fed9 af3c 37c4 233e ede0 ef3d
00000300: 0f58 04bf a2e0 a5be 3625 b2be d6be 31be
00000310: 5c2c b6be 74a1 10bf b88b 19bf 28f7 f6be
00000320: 48fe 593e d030 f9bd a423 0dbe c2bd 383e
00000330: 0bef 38bf eea6 03bf 7914 71bf 5f2b 4a3e
00000340: 97ea 50bf efe0 47bf d32d 1dbf 50cc c0be
00000350: 4ea5 ad3e 1de7 30be 6988 a1be f7f6 97bd
00000360: 7570 92be 3fe5 fb3e 2581 ebbe 2584 74be
00000370: 545c 27bf fdc9 0bc0 d028 58bf 8b37 f7bf
00000380: b706 e43d f1c8 e43d ec22 58bd 0eac 17be
00000390: 555f c23e e4b3 5e3f c207 9d3c 22a5 acbf
000003a0: 0ca7 53bf 000d e4bf 163c c4bf 359f 07c0
000003b0: 14fa 4fbe b6d2 85be 822a ffba a742 d4be
000003c0: c463 19be f05a 533d 86ce 9f3e fffa 0bbe
000003d0: cf09 2e3e 146f b7bd 6767 bd3c 2a1d 6cbe
000003e0: 1876 abbe 0768 44be 7a01 6c3c f672 de3e
000003f0: 1b2b dc3d 82b3 0bbe 0093 393e c26c 9ebe

bias f4 [16]
-0.0029921953 -0.0029901306 -0.0029958128 -0.000869779 0.0013349204 -0.002931913 0.0017658541 0.0019886508
0.001972507 -0.0029968766 -5.5003413e-05 -0.0028747718 -0.0029962815 -0.00086342567 0.0010817137 -0.0029952114
00000000: b518 44bb 11f6 43bb 6655 44bb e101 64ba
00000010: 7ff8 ae3a 5625 40bb 3b74 e73a 0654 023b
00000020: 2d45 013b 3f67 44bb 77b3 66b8 ab66 3cbb
00000030: 435d 44bb 8457 62ba 4ac8 8d3a 4f4b 44bb

weight f4 [32, 16, 2, 2]
-0.0704207 0.23363179 -0.07652785 -0.2290524 0.16234207 -0.100389734 -0.02462692 -0.11287559
-0.11746965 -0.097775124 -0.12261253 -0.23952784 0.19887438 0.043188225 -0.06575394 0.16951285
0.5404265 0.44469 0.6141123 1.1070141 -0.16472305 -0.06525435 0.22709711 0.07835745
0.16477637 0.120960124 0.21761577 0.4222789 0.43071494 0.5000747 0.032792155 0.40866697
0.81299883 0.4931099 0.21536604 0.3339448 0.0641871 -0.12495337 0.12543517 -0.05435801
0.02061406 0.15214887 0.46854421 0.12200609 0.22877836 0.13206519 0.07085857 -0.047138512
-0.31882983 -0.2003836 0.12764215 -0.09629661 0.22195572 -0.11804081 -0.11198718 0.007070227
-0.09305744 0.10922333 0.1653823 0.90346944 0.31570536 -0.38541767 -0.101613216 0.26772624
-0.2674122 0.16671692 0.39046487 -0.010958309 0.16236508 -0.2820453 -0.1299384 -0.06270171
0.17611472 -0.18262912 0.092987955 0.0027363799 0.18672805 -0.0755206 0.10374558 0.41751823
0.65873545 -0.055411573 0.97679436 0.8128162 -0.10671268 -0.00939024 -0.089248 0.20295723
0.11516077 0.08317696 0.2906434 0.5257106 0.13183227 0.26684475 0.40105852 0.37707216
0.6761593 0.35913333 0.49281585 0.24413244 0.05709302 0.20871648 -0.36399314 0.17363264
0.56399214 0.006263415 0.61164975 0.19815809 0.12578326 -0.12721618 -0.21109782 -0.008821619
-0.0018949453 0.09551359 0.08092247 0.4494587 -0.13843964 0.063155 0.0050192988 -0.17062126
0.65784204 -0.063166715 0.68318266 0.40633547 0.2191723 -0.19177084 0.12090229 -0.16612086
0.03466343 0.0667448 -0.2785185 -0.030111048 -0.09857706 -0.0583092 -0.25618377 0.1362544
0.33625126 0.28013986 -0.06529142 0.116541475 -0.083895825 0.35429266 0.41539177 0.105820425
0.53146267 0.36170802 0.98914313 0.931999 -0.15336941 0.00043924584 -0.052027274 -0.092225894
0.05345542 0.19279656 0.25833243 0.4778995 0.2760171 0.11346883 0.38192144 0.29965758
0.4842297 0.5010643 0.49731058 0.46648243 -0.14689656 -0.14433458 -0.03767485 -0.29559457
0.39843222 -0.2199462 0.025821751 0.41500473 -0.050385013 -0.1553104 -0.36461836 0.12759617
-0.019783625 0.19520272 -0.21102895 0.04562887 0.3001155 -0.23358037 -0.14199068 -0.010309842
0.34266725 0.58177215 0.4184219 0.68703955 0.24040233 -0.2841275 0.028348815 0.06386346
-0.04708279 0.034711264 -0.07308176 0.039773364 -0.16553321 -0.0539102 -0.03595863 -0.07998708
-0.15435566 -0.29717815 -0.30061227 -0.16784582 0.18149194 0.11023142 0.11633447 0.35081494
0.44648063 0.33594224 0.29951233 0.8660681 0.03849377 0.31556624 0.07668705 -0.22519408
0.3274115 0.21492876 0.05243599 0.081130676 0.28346106 -0.1263952 -0.009625781 0.4622412
0.42906547 0.18714347 0.7077249 0.5805685 -0.09783416 0.008633705 -0.0139456 0.42683992
0.34385574 0.058026794 0.08534746 0.618875 0.18400104 -0.17027122 0.0004463273 -0.13653643
0.3753547 -0.17327201 0.021341302 -0.146 0.11891253 0.0747002 -0.044227555 -0.20264694
0.3190088 0.31067365 0.52454495 0.82115185 0.09282501 -0.23288758 -0.37301618 -0.1700641
00000000: ba38 90bd 2c3d 6f3e a2ba 9cbd b68c 6abe
00000010: 003d 263e 2299 cdbd 65be c9bc 512b e7bd
00000020: ee93 f0bd 533e c8bd 471c fbbd c946 75be
00000030: baa5 4b3e 23e6 303d 00aa 86bd c794 2d3e
00000040: 6459 0a3f 68ae e33e 7736 1d3f a3b2 8d3f
00000050: 29ad 28be 13a4 85bd 258c 683e df79 a03d
00000060: 23bb 283e f1b9 f73d abd6 5e3e f134 d83e
00000070: ab86 dc3e e504 003f 1151 063d cc3c d13e
00000080: b120 503f e778 fc3e ea88 5c3e d0fa aa3e
00000090: 8774 833d 8de7 ffbd 1472 003e 81a6 5ebd
000000a0: d1de a83c eacc 1b3e 07e5 ef3e 54de f93d
000000b0: e044 6a3e 193c 073e 4c1e 913d 5014 41bd
000000c0: aa3d a3be 5c31 4dbe a0b4 023e 2837 c5bd
000000d0: 5c48 633e 61bf f1bd 8959 e5bd 5dad e73b
000000e0: e694 bebd 7bb0 df3d fa59 293e c649 673f
000000f0: 22a4 a13e 7755 c5be 971a d0bd 6a13 893e
00000100: 40ea 88be d7b7 2a3e 03eb c73e 7b8a 33bc
00000110: 0843 263e 3e68 90be 920e 05be c169 80bd
00000120: 6b57 343e 2103 3bbe 7870 be3d d654 333b
00000130: a335 3f3e 8baa 9abd 9078 d43d f3c4 d53e
00000140: e3a2 283f 3ff7 62bd 320f 7a3f b914 503f
00000150: 2d8c dabd 85d9 19bc a8c7 b6bd 05d4 4f3e
00000160: 69d9 eb3d af58 aa3d 36cf 943e f894 063f
00000170: 0aff 063e e09f 883e 8b57 cd3e 9a0f c13e
00000180: c718 2d3f 53e0 b73e 5c52 fc3e dbfd 793e
00000190: 5fda 693d c6b9 553e 4f5d babe c1cc 313e
000001a0: ca61 103f 553d cd3b 1495 1c3f f4e9 4a3e
000001b0: 54cd 003e f544 02be 072a 58be 8d88 10bc
000001c0: d05f f8ba a19c c33d aeba a53d 731f e63e
000001d0: 1fc3 0dbe 6957 813d ee78 a43b 57b7 2ebe
000001e0: 5668 283f 8d5d 81bd 0fe5 2e3f 340b d03e
000001f0: b46e 603e 935f 44be 9f9b f73d 961b 2abe
00000200: 3efb 0d3d 7fb1 883d fa99 8ebe 72ab f6bc
00000210: c5e2 c9bd a1d5 6ebd 852a 83be 4686 0b3e
00000220: 2029 ac3e 7e6e 8f3e 82b7 85bd 4cad ee3d
00000230: 93d1 abbd d965 b53e 3bae d43e 61b8 d83d
00000240: f00d 083f cb31 b93e 7c38 7d3f 7d97 6e3f
00000250: df0c 1dbe 944a e639 8d1a 55bd eee0 bcbd
00000260: 12f4 5a3d 766c 453e 2644 843e 3eaf f43e
00000270: 1d52 8d3e 5962 e83d 358b c33e b86c 993e
00000280: f5ec f73e c045 003f 7e9f fe3e c9d6 ee3e
00000290: 0d6c 16be 72cc 13be f250 1abd 2c58 97be
000002a0: 4fff cb3e 9439 61be 2388 d33c 807b d43e
000002b0: 8460 4ebd b109 1fbe 42af babe 92a8 023e
000002c0: 4511 a2bc 39e3 473e f917 58be 57e5 3a3d
000002d0: bda8 993e b12f 6fbe 0166 11be 9dea 28bc
000002e0: 1572 af3e 05ef 143f 653b d63e d3e1 2f3f
000002f0: 072c 763e 2979 91be c63b e83c d9ca 823d
00000300: e2d9 40bd 662d 0e3d e4ab 95bd 65e9 223d
00000310: 8a81 29be f1d0 5cbd 5b49 13bd 44d0 a3bd
00000320: 690f 1ebe bc27 98be dae9 99be c6df 2bbe
00000330: 06d9 393e 03c1 e13d c440 ee3d 049e b33e
00000340: 1c99 e43e 9f00 ac3e ae59 993e a4b6 5d3f
00000350: a5ab 1d3d e691 a13e 1a0e 9d3d 4799 66be
00000360: 7ba2 a73e 4916 5c3e 1fc7 563d d727 a63d
00000370: cf21 913e be6d 01be 74b5 1dbc e1aa ec3e
00000380: 78ae db3e 8aa2 3f3e 762d 353f 23a0 143f
00000390: 475d c8bd 6274 0d3c 167c 64bc c38a da3e
000003a0: dc0d b03e 81ad 6d3d a6ca ae3d 986e 1e3f
000003b0: c56a 3c3e 945b 2ebe 0901 ea39 35d0 0bbe
000003c0: 7e2e c03e 386e 31be f4d3 ae3c 0681 15be
000003d0: 6a88 f33d 6bfc 983d f427 35bd ae82 4fbe
000003e0: 1f55 a33e 9e10 9f3e 9448 063f 0237 523f
000003f0: 0a1b be3d 157a 6ebe fafb bebe 4925 2ebe

bias f4 [32]
-0.003696789 -0.0003655607 -0.0002651374 -0.0030470744 0.031768747 -0.0027652765 -0.0016291889 -0.014188173
-0.009756198 -0.002801009 -0.001801454 0.013441493 -0.0029942847 -0.0021889033 1.09326975e-05 -0.003111993
-0.006794847 -0.0022056468 -0.0029905646 0.01568548 -0.012924627 -0.0077908677 0.0025993544 -0.002326118
-0.0013136198 -0.0026317597 -0.01262689 -0.0076532294 0.045174573 -0.017557891 -0.0065546255 -0.00023233503
00000000: d445 72bb baa8 bfb9 2402 8bb9 6db1 47bb
00000010: f21f 023d a439 35bb 828a d5ba 8375 68bc
00000020: 76d8 1fbc 2291 37bb c41e ecba b539 5c3c
00000030: c33b 44bb b473 0fbb 946b 3737 94f2 4bbb
00000040: 4fa7 debb 9d8c 10bb 59fd 43bb d67e 803c
00000050: d1c1 53bc 894a ffbb ee59 2a3b c971 18bb
00000060: c42d acba 9a79 2cbb 04e1 4ebc f1c7 fabb
00000070: f908 393d 91d5 8fbc 2fc8 d6bb f69e 73b9

weight f4 [64, 32, 2, 2]
-0.0541132 -0.0133299455 0.042030767 -0.082449734 0.069588155 -0.09236449 -0.069541186 -0.07117378
-0.045415916 -0.091983475 0.15870355 -0.09789204 0.1273304 -0.057871483 0.11261892 0.18426721
0.067203626 -0.17432466 -0.37336367 0.08645384 0.0057151653 -0.0572954 0.006041678 -0.20811635
-0.11308667 0.0739921 -0.16801186 -0.04503312 0.020544479 -0.0812212 0.18548003 0.08689076
0.13711202 -0.118294716 -0.11788872 -0.005440394 0.04220954 0.041086596 0.05186744 -0.17544875
-0.004824468 -0.1052896 0.19203393 -0.09913105 0.11967594 0.09591417 -0.11596874 0.17578363
-0.004920489 -0.06857463 -0.054646727 0.35645935 0.15149613 0.044448838 -0.062350284 0.15356591
-0.0029255012 -0.029421436 0.06836497 -0.096718855 -0.053248934 0.09231824 -0.15624402 -0.11520647
-0.04900676 -0.098751165 -0.0022079062 -0.096066475 0.25147152 -0.0499899 -0.04896655 -0.21160221
-0.0056680944 -0.016089374 0.06413457 0.21228349 -0.29456526 -0.10685991 0.04065044 -0.0127561875
-0.16202757 -0.0859425 -0.232895 -0.19039567 -0.03720453 0.18109448 0.14571366 -0.020644108
-0.0030134064 -0.08016341 0.091102496 -0.08522129 -0.041035037 0.07837712 0.14927998 -0.056156263
0.011421767 0.06451879 -0.16895665 0.110046744 -0.18120253 -0.1088003 -0.046592668 -0.10481668
-0.2068788 0.010099134 0.15939502 0.058142196 -0.14113462 -0.0041159797 -0.16963375 0.22371429
-0.123534955 0.21364102 0.158634 -0.0501689 0.061771 0.09812904 0.070867844 -0.1031301
-0.032083046 0.19004427 -0.110152476 0.118522234 -0.10930731 0.03063934 0.27288958 -0.08251135
0.10460869 0.29916614 -0.0005491782 0.45597225 0.13973036 0.10859575 0.20042028 0.39644697
0.07458395 0.2686688 0.32455614 0.49242482 0.33664644 0.028996402 0.37076858 0.26018587
0.0639494 0.002210909 0.025274513 0.43119475 -0.13553672 -0.011207606 0.097184494 -0.025961956
-0.049377404 -0.08967876 -0.019619433 0.11825436 0.013709755 0.20004454 -0.041171182 -0.0972339
0.051249355 -0.011133315 0.3235676 -0.120056055 -0.045677926 0.12214696 -0.19274405 0.07030536
0.14903165 0.017397232 -0.0018835875 0.08278396 0.0820289 0.11190822 0.033186004 0.09863057
-0.116242066 0.13815767 -0.15429243 0.08616812 -0.06954313 0.047674444 0.09215347 0.029056154
0.26649302 0.30510703 0.10838923 0.49771485 0.11629019 0.25530154 0.101760626 0.25664848
0.15863577 -0.12081473 -0.004963461 0.02055186 0.19439341 -0.0020569244 -0.22158271 -0.08877363
0.17147216 -0.166075 -0.05355164 -0.05020121 0.13462119 0.10681118 0.15822698 0.35504943
0.085219905 0.05380417 0.16845477 0.117732115 -0.097138226 0.10152548 0.16883484 -0.09373039
0.22254014 0.047467873 0.18178263 0.046882782 0.11122003 -0.023951435 -0.014730433 -0.09962612
0.040428642 -0.14672914 0.21953496 -0.01713221 -0.0479521 0.12971732 -0.10428875 -0.023667501
0.09548324 0.16685385 0.059906248 0.059505735 -0.06757823 0.241063 0.052239683 0.0006111332
-0.026654808 -0.039245456 -0.14164 -0.34545672 -0.15820919 -0.102422744 0.07663331 -0.21197942
0.29531172 0.045118418 0.20494986 0.096248366 0.06550324 0.3075009 0.18954256 0.062273744
00000000: cea5 5dbd d865 5abc 7428 2c3d 68db a8bd
00000010: 3c84 8e3d 9829 bdbd 9c6b 8ebd 8fc3 91bd
00000020: 0a06 3abd d561 bcbd 2f83 223e 9f7b c8bd
00000030: e662 023e a60a 6dbd c0a4 e63d 8bb0 3c3e
00000040: 0ea2 893d 2a82 32be 8629 bfbe b60e b13d
00000050: 4846 bb3b 95ae 6abd 45f9 c53b 741c 55be
00000060: fc99 e7bd 2c89 973d 4d0b 2cbe a674 38bd
00000070: e54c a83c 4d57 a6bd 7aee 3d3e c8f3 b13d
00000080: 1867 0c3e 8044 f2bd a46f f1bd 5545 b2bb
00000090: e9e3 2c3d 6b4a 283d f472 543d d6a8 33be
000000a0: 9216 9ebb 13a2 d7bd 8ba4 443e 3805 cbbd
000000b0: a918 f53d a66e c43d 0581 edbd a000 343e
000000c0: 0e3c a1bb db70 8cbd 3fd5 5fbd d781 b63e
000000d0: cd21 1b3e fc0f 363d 0363 7fbd 6240 1d3e
000000e0: c4b9 3fbb 3905 f1bc ef02 8c3d 8914 c6bd
000000f0: 8e1b 5abd 5811 bd3d 6ffe 1fbe 5ff1 ebbd
00000100: 50bb 48bd 0d3e cabd 85b2 10bb 80be c4bd
00000110: e0c0 803e 36c2 4cbd 2691 48bd 40ae 58be
00000120: 6cbb b9bb ddcd 83bc fc58 833d d860 593e
00000130: 42d1 96be 5ed9 dabd 1381 263d 54ff 50bc
00000140: 8eea 25be 9f02 b0bd 077c 6ebe 15f7 42be
00000150: c763 18bd d570 393e f635 153e d51d a9bc
00000160: 927c 45bb b72c a4bd f293 ba3d 8088 aebd
00000170: 5b14 28bd 2f84 a03d dadc 183e 1c04 66bd
00000180: 5d22 3b3c 6d22 843d f902 2dbe 3060 e13d
00000190: 288d 39be b1d2 debd f4d7 3ebd 21aa d6bd
000001a0: 09d8 53be d776 253c 7338 233e 8326 6e3d
000001b0: 9885 10be 57df 86bb 78b4 2dbe 5c15 653e
000001c0: e5ff fcbd b6c4 5a3e f470 223e e87d 4dbd
000001d0: 9703 7d3d e1f7 c83d 2923 913d e035 d3bd
000001e0: 8369 03bd f79a 423e 9f97 e1bd c9bb f23d
000001f0: 83dc dfbd 5aff fa3c 2fb8 8b3e b6fb a8bd
00000200: 153d d63d 4e2c 993e baf6 0fba 3275 e93e
00000210: 7a15 0f3e 7367 de3d f93a 4d3e 19fb ca3e
00000220: 78bf 983d f58e 893e 392c a63e 1b1f fc3e
00000230: ec5c ac3e dd89 ed3c 61d5 bd3e 1537 853e
00000240: e7f7 823d e6e4 103b 7f0c cf3c 8fc5 dc3e
00000250: 23ca 0abe 1ba0 37bc aa08 c73d 2bae d4bc
00000260: f63f 4abd 7fa9 b7bd efb8 a0bc 582f f23d
00000270: e19e 603c 7ad8 4c3e 1da3 28bd 9122 c7bd
00000280: d8ea 513d 8268 36bc a7aa a53e f3df f5bd
00000290: c718 3bbd 2f28 fa3d b25e 45be 42fc 8f3d
000002a0: c19b 183e a484 8e3c b5e2 f6ba a38a a93d
000002b0: c5fe a73d 2330 e53d 0cee 073d d3fe c93d
000002c0: 5210 eebd 3479 0d3e d6fe 1dbe e978 b03d
000002d0: a16c 8ebd 4746 433d f5ba bc3d 2c07 ee3c
000002e0: c671 883e fd36 9c3e 2cfb dd3d 7bd4 fe3e
000002f0: 8d29 ee3d e2b6 823e e067 d03d 6e67 833e
00000300: 6a71 223e b76d f7bd 87a4 a2bb 605c a83c
00000310: 110f 473e 77cd 06bb 94e6 62be f3ce b5bd
00000320: 6696 2f3e 910f 2abe f758 5bbd c99f 4dbd
00000330: 23da 093e d2bf da3d 4106 223e 0ac9 b53e
00000340: c687 ae3d c361 5c3d 687f 2c3e 891d f13d
00000350: 68f0 c6bd 97ec cf3d 0ae3 2c3e b8f5 bfbd
00000360: 90e1 633e ac6d 423d 3a25 3a3e 2908 403d
00000370: 54c7 e33d cd35 c4bc ea57 71bc c708 ccbd
00000380: 8198 253d 2a40 16be c6cd 603e d958 8cbc
00000390: 6c69 44bd 9ed4 043e 5795 d5bd 59e2 c1bc
000003a0: b88c c33d bcdb 2a3e 4160 753d 49bc 733d
000003b0: 7466 8abd 38d9 763e 47f9 553d 7434 203a
000003c0: 2f5b dabc d8bf 20bd 130a 11be b4df b0be
000003d0: 9701 22be 04c3 d1bd edf1 9c3d 2211 59be
000003e0: 1933 973e 17ce 383d 60de 513e dd1d c53d
000003f0: 9026 863d c270 9d3e 7217 423e c112 7f3d

bias f4 [64]
0.0043561114 0.03403833 -0.0017591848 -0.0081266295 0.08188433 0.0 -0.0060798903 0.08498574
-0.0029074026 0.0041889423 0.0 -0.0088465465 -0.0029779694 -0.001673706 0.0 -0.0026684178
-0.0020222634 0.07102435 -0.0029548174 0.003218578 -0.0029891685 0.0072167884 0.00082295696 0.082369424
-0.010425857 -0.03534736 0.0 0.052082803 0.0034376225 -0.010103168 -0.011880678 -0.0029824632
-0.002928244 0.0 0.042086486 -0.02190672 0.02377393 0.0 0.004040228 0.01670717
-0.0061170063 0.005493354 0.00075819576 0.00661331 -0.012431173 0.008884795 0.0 0.05796215
-0.025471222 0.07130111 -0.0021468692 0.05369702 -0.0033128061 -0.027253674 0.0 -0.0031895034
-0.015547383 -0.017355766 0.0 -0.0012854071 0.051411644 -0.006706356 0.031533647 0.053324234
00000000: b6bd 8e3b c76b 0b3d 7294 e6ba 8e25 05bc
00000010: f9b2 a73d 0000 0000 d139 c7bb 010d ae3d
00000020: 1f8a 3ebb 6543 893b 0000 0000 1bf1 10bc
00000030: 092a 43bb 4160 dbba 0000 0000 9fe0 2ebb
00000040: f387 04bb 3775 913d 9ca5 41bb c7ee 523b
00000050: ede5 43bb cf7a ec3b b5bb 573a 4db1 a83d
00000060: 37d1 2abc 65c8 10bd 0000 0000 c754 553d
00000070: bc49 613b c287 25bc 2da7 42bc 6e75 43bb
00000080: c8e7 3fbb 0000 0000 e162 2c3d b975 b3bc
00000090: 8bc1 c23c 0000 0000 e463 843b 7add 883c
000000a0: 2b71 c8bb 9801 b43b a8c1 463a 77b4 d83b
000000b0: 1eac 4bbc 8891 113c 0000 0000 b869 6d3d
000000c0: 06a9 d0bc 5106 923d 7db2 0cbb 68f1 5b3d
000000d0: aa1b 59bb 1943 dfbc 0000 0000 fd06 51bb
000000e0: 73ba 7ebc ae2d 8ebc 0000 0000 1b7b a8ba
000000f0: 0495 523d fec0 dbbb 6d29 013d 836a 5a3d

weight f4 [64, 64]
-0.14378333 0.09381604 -0.05400488 0.0058708764 -0.5376693 -0.04106304 0.0772209 -0.40995112
-0.12607656 0.37914366 -0.12182022 -0.06330971 0.17868789 -0.064785324 -0.17028415 0.072433844
0.0003808352 -0.44320658 0.14288762 0.08289851 -0.25512883 -0.13349853 -0.1882424 -0.20300949
0.59484017 0.22330096 -0.46365187 0.2460407 0.110918954 0.03638942 0.042292617 0.084974356
-0.087963074 -0.3420992 0.14805073 -0.20219088 0.41702428 -0.28411618 0.25493538 0.14170569
-0.13260676 0.2192051 0.12945731 -0.454668 0.04464717 0.40255988 0.22218345 0.032363847
-0.07974306 0.12313078 0.2293535 -0.19799094 -0.21158843 0.0038250329 -0.33894527 -0.06516404
-0.28576612 0.3939712 0.056775544 -0.1373441 0.08809964 -0.027147153 0.20913498 0.13984536
-0.115909986 0.22564346 0.03887602 -0.1211088 -0.23524141 -0.17219251 0.27945656 -0.42596892
0.3533208 -0.11915428 0.23589857 0.37262756 -0.10142619 -0.07524669 0.044052556 0.019885639
0.14439134 -0.22748542 0.07835787 0.1754459 -0.08201486 0.073594175 -0.042304978 -0.33083856
0.001718033 -0.233194 -0.21251579 0.30048522 -0.27687693 -0.2516999 0.12672204 0.25094485
-0.122386396 0.026593568 -0.062173218 -0.0626975 -0.122434966 0.24520127 0.15837875 0.36438468
-0.069997795 -0.13540155 -0.121113494 -0.081814274 -0.04601901 0.28171265 0.15266626 0.3016149
-0.04154836 0.36332944 -0.07847883 0.21518071 -0.12947229 -0.015090583 0.04666559 -0.31481254
-0.08231356 0.3152939 0.1412436 -0.060826447 0.54897714 -0.2482402 0.33933792 0.18385199
0.38017628 -0.46042007 -0.045735173 0.1315851 0.1779678 0.18484636 -0.06385803 0.15520622
-0.14244987 -0.4680937 0.13408582 -0.26578814 -0.2277938 -0.02086242 -0.1747605 0.15940142
-0.26768985 0.15542261 -0.10582154 -0.11016874 0.006288285 -0.13721707 0.082256585 -0.30675247
-0.26018158 -0.3392898 0.119643785 -0.30892628 0.31014082 -0.32089457 0.18954405 -0.02726754
-0.094069615 0.021473523 -0.50474507 -0.16268457 -0.17954479 -0.11481836 -0.2189404 -0.18464106
0.05139572 -0.2093037 -0.3109591 -0.3122189 0.06791225 -0.02293903 -0.06332993 -0.36943215
-0.1623006 -0.15917332 -0.046500243 -0.024273586 -0.15769054 -0.0056223185 -0.1592886 -0.27047163
0.13799414 -0.34740117 0.0654651 -0.2708769 -0.4555123 -0.084699966 -0.14002883 -0.22870582
-0.45012623 -0.681981 -0.04115456 0.052217238 0.17902625 0.14267792 0.049763452 0.22615683
0.102953136 0.05511098 -0.09098563 0.23552656 -0.064717814 0.09635333 0.19652672 -0.032746017
0.03131514 0.049107008 0.084089346 -0.16357622 0.27928773 -0.46296754 0.1342643 0.24509606
-0.38132152 -0.27350846 0.13586113 -0.1302332 0.13200165 -0.08348293 0.024130922 -0.08069042
-0.054630842 0.2647698 -0.10093336 -0.17609149 0.12840717 0.019447546 0.1284874 -0.24257809
-0.40774632 -0.061405573 -0.08920522 0.06600279 -0.2393453 -0.47047335 -0.07727291 -0.49048236
0.106230214 -0.06981116 -0.03222406 0.036284108 -0.008703221 -0.14145055 -0.096325144 -0.0039010427
-0.24345718 -0.23441212 0.14486209 0.023125112 -0.25299162 -0.20041445 -0.11731256 -0.05246856
00000000: f03b 13be a022 c03d 3934 5dbd 7b60 c03b
00000010: b2a4 09bf b831 28bd fe25 9e3d 1de5 d1be
00000020: 371a 01be 1e1f c23e e17c f9bd 85a8 81bd
00000030: f5f9 363e 2bae 84bd f85e 2ebe 3258 943d
00000040: d6aa c739 f9eb e2be 2251 123e b2c6 a93d
00000050: 3fa0 82be d7b3 08be 9ec2 40be b8e1 4fbe
00000060: 7247 183f 02a9 643e c763 edbe 18f2 7b3e
00000070: 7a29 e33d 130d 153d 063b 2d3d 0907 ae3d
00000080: fc25 b4bd a027 afbe 9c9a 173e 200b 4fbe
00000090: 3584 d53e ad77 91be e486 823e 4c1b 113e
000000a0: 11ca 07be 4d77 603e 7590 043e 3eca e8be
000000b0: f3df 363d 541c ce3e 0f84 633e f48f 043d
000000c0: 5450 a3bd fe2b fc3d a5db 6a3e 23be 4abe
000000d0: a3aa 58be 67ad 7a3b 3c8a adbe b974 85bd
000000e0: f04f 92be 98b6 c93e 798d 683d efa3 0cbe
000000f0: 966d b43d b563 debc 7b27 563e 9f33 0f3e
00000100: 3762 edbd 140f 673e 763c 1f3d e407 f8bd
00000110: 20e3 70be 3c53 30be ee14 8f3e 9918 dabe
00000120: 77e6 b43e 2907 f4bd 658f 713e 0ac9 be3e
00000130: 89b8 cfbd f01a 9abd 7470 343d 35e7 a23c
00000140: 53db 133e f0f1 68be 177a a03d 17a8 333e
00000150: 68f7 a7bd 8bb8 963d fc47 2dbd ac63 a9be
00000160: 9f2f e13a 68ca 6ebe bd9d 59be 33d9 993e
00000170: d0c2 8dbe cfde 80be 6cc3 013e d87b 803e
00000180: b8a5 fabd c1da d93c 58a9 7ebd 8c67 80bd
00000190: 2fbf fabd 0b16 7b3e 0a2e 223e a190 ba3e
000001a0: 015b 8fbd b4a6 0abe 5a0a f8bd 3e8e a7bd
000001b0: 6e7e 3cbd a43c 903e 8b54 1c3e 456d 9a3e
000001c0: 9d2e 2abd 5106 ba3e 82b9 a0bd 5558 5c3e
000001d0: 6294 04be 7e3e 77bc 6b24 3f3d 1c2f a1be
000001e0: 0394 a8bd 346e a13e 2aa2 103e 2725 79bd
000001f0: c489 0c3f ae32 7ebe b3bd ad3e b243 3c3e
00000200: 77a6 c23e 2ebc ebbe ce54 3bbd 3fbe 063e
00000210: 313d 363e 5d48 3d3e 00c8 82bd 61ee 1e3e
00000220: 61de 11be faa9 efbe cb4d 093e 6215 88be
00000230: c742 69be aae7 aabc 6bf4 32be 203a 233e
00000240: a50e 89be 1b27 1f3e f7b8 d8bd 26a0 e1bd
00000250: f50d ce3b a282 0cbe 2476 a83d a90e 9dbe
00000260: 8536 85be 65b7 adbe cd07 f53d 962b 9ebe
00000270: c7ca 9e3e 4b4c a4be d617 423e 2d60 dfbc
00000280: 92a7 c0bd 3ee9 af3c f936 01bf c996 26be
00000290: 97da 37be e325 ebbd ea31 60be 8c12 3dbe
000002a0: 5284 523d b653 56be 0836 9fbe 28db 9fbe
000002b0: 9415 8b3d a2ea bbbc 1fb3 81bd 3626 bdbe
000002c0: 2132 26be 55fe 22be 0a77 3ebd 66d9 c6bc
000002d0: a179 21be 6d3b b8bb 8d1c 23be 427b 8abe
000002e0: 564e 0d3e 91de b1be 9112 863d 61b0 8abe
000002f0: e838 e9be 2d77 adbd b863 0fbe dc31 6abe
00000300: f276 e6be 4f96 2ebf af91 28bd bee1 553d
00000310: a852 373e 291a 123e c3d4 4b3d a895 673e
00000320: 18d9 d23d 0dbc 613d ad56 babd e02d 713e
00000330: c68a 84bd e554 c53d 4d3e 493e b020 06bd
00000340: 4e44 003d 6e24 493d 0937 ac3d 8680 27be
00000350: cdfe 8e3e 150a edbe 957c 093e 76fa 7a3e
00000360: 933c c3be 4d09 8cbe 2e1f 0b3e da5b 05be
00000370: 712b 073e 19f9 aabd 36ae c53c 0541 a5bd
00000380: 97c4 5fbd e88f 873e 26b6 cebd 5451 34be
00000390: 2b7d 033e 7650 9f3c 3392 033e 6466 78be
000003a0: 20c4 d0be 6984 7bbd 3ab1 b6bd 792c 873d
000003b0: ef16 75be e2e1 f0be 4241 9ebd 8120 fbbe
000003c0: 3a8f d93d 27f9 8ebd 60fd 03bd a59e 143d
000003d0: f497 0ebc 6ad8 10be 1e46 c5bd a3a8 7fbb
000003e0: d74c 79be bb09 70be ba56 143e e070 bd3c
000003f0: 1e88 81be 7239 4dbe 9141 f0bd 46e9 56bd

bias f4 [64]
-0.081174284 0.087844685 -0.12992477 -0.07048651 -0.109363586 -0.0007043345 -0.05521388 0.099036954
0.100881375 -0.06197529 -0.106371775 0.008987803 -0.06290903 0.123530164 -0.008105933 0.08765748
0.042223033 -0.0982713 -0.015126986 0.082808204 0.011077367 0.08475561 -0.05891342 0.040386584
0.07225725 0.06231959 -0.09651428 -0.086150184 0.07034133 0.107029624 -0.05921226 0.12087183
-0.08522426 -0.020967687 -0.031755388 0.08602005 0.09614082 0.09859644 -0.018054279 0.09258189
-0.063078485 0.0065108696 0.052087907 0.12665075 -0.0928188 0.10782498 -0.0946551 -0.028452082
0.09572256 -0.11687248 0.05733712 0.0030840626 0.13485265 -0.07810674 0.1066261 0.01402901
0.110363685 -0.11340283 0.08821398 0.09671665 -0.022553219 0.096257605 0.10067343 -0.08160597
00000000: b43e a6bd eae7 b33d 000b 05be 3b5b 90bd
00000010: 04fa dfbd 17a3 38ba f327 62bd e3d3 ca3d
00000020: e59a ce3d cdd9 7dbd 72d9 d9bd 9441 133c
00000030: 73d6 80bd 62fd fc3d bfce 04bc c485 b33d
00000040: 0ff2 2c3d 7742 c9bd 2ed7 77bc 5997 a93d
00000050: d87d 353c 5994 ad3d 334f 71bd 676c 253d
00000060: 9cfb 933d d442 7f3d 47a9 c5bd 826f b0bd
00000070: 1d0f 903d 5932 db3d 8e88 72bd a68b f73d
00000080: 0f8a aebd 6dc4 abbc f011 02bd 482b b03d
00000090: 7ae5 c43d eeec c93d 91e6 93bc 939b bd3d
000000a0: 4b2f 81bd 2259 d53b 215a 553d bcb0 013e
000000b0: c817 bebd 58d3 dc3d 88da c1bd 5714 e9bc
000000c0: 310a c43d d75a efbd 54da 6a3d fc1d 4a3b
000000d0: d016 0a3e 6df6 9fbd c95e da3d efd9 653c
000000e0: 5b06 e23d be3f e8bd 88a9 b43d 6113 c63d
000000f0: 87c1 b8bc b522 c53d df2d ce3d 0821 a7bd

weight f4 [64, 64]
-0.03896372 0.14697976 -0.13324232 -0.087842174 -0.12182519 0.23936038 0.1003352 0.013300836
-0.67575 -0.2497665 0.08724254 -0.16009825 0.049871422 0.27024984 -0.1785831 0.020877361
0.022864891 0.34829277 -0.01646309 0.08621926 0.049006805 0.1522925 -0.025090763 0.056696355
0.10141395 -0.068002366 -0.091225594 -0.069083445 -0.22995341 -0.0037213797 -0.1261466 0.20364366
0.2993897 0.22260194 -0.06379039 0.22440535 -0.23492475 0.46597672 0.2999032 -0.26415053
0.17103192 -0.17566125 -0.05749307 0.09625909 -0.31064337 -0.1281604 0.16436338 0.0821964
0.18514356 0.30272168 0.30972734 -0.3174217 0.23599845 0.13388169 0.11069123 -0.12567912
0.066668116 0.40258428 0.020969067 -0.030396102 0.030736066 0.0720811 -0.46544355 0.08734252
0.18445611 0.36434436 -0.20629023 -0.1332607 0.14969173 -0.0004076559 -0.21513847 -0.11234284
-0.16393198 -0.26786694 -0.06877451 0.017456759 0.35789466 0.11825158 0.116785005 0.57185674
-0.14780101 -0.12244425 -0.08008058 0.20876712 0.16976327 0.1518961 0.025086245 -0.21652767
0.032629963 0.04323231 -0.13370998 0.31981573 0.08680272 0.4679108 0.19480352 0.16284323
0.044664245 0.0023298978 0.048704352 -0.1928109 -0.35717115 -0.004464164 -0.23889825 -0.24041754
0.0656191 -0.21165513 -0.1787125 -0.020214614 -0.16358842 0.1184965 -0.13275754 0.053251263
-0.13794473 -0.001462404 -0.0049993596 -0.3424237 0.105242 -0.089135 -0.18406628 0.11681736
0.2982975 0.3577119 -0.077941395 -0.08495344 0.40912384 0.12665491 -0.36925605 -0.17280346
-0.10751165 -0.26447287 0.11255624 0.2758315 -0.47734255 0.08913886 0.16268855 0.12211689
0.40507 0.021922752 -3.420749e-05 0.04731141 0.020277966 -0.24249807 0.093892194 0.0075066197
0.11235101 -0.22805178 0.5112538 -0.28291345 -0.44835824 -0.32620156 -0.2520815 -0.26201323
0.13227984 0.38032112 -0.11581655 -0.09529631 -0.0433624 -0.16955467 -0.08857692 -0.01163764
-0.49489826 0.24908926 -0.11312221 -0.111853704 0.35576546 -0.10823362 -0.39204195 -0.072534315
-0.07723839 -0.08765496 0.25865057 -0.2319779 -0.12033291 -0.31050387 -0.047515582 -0.07162782
-0.18645728 -0.2443033 0.074207105 0.18493384 0.22728634 0.05976594 0.23725347 0.21941505
0.0768682 0.034297515 0.1650749 0.097944856 -0.11437864 0.26417848 0.09693708 0.2586567
-0.049939856 0.38753694 0.23240422 0.41541412 -0.043661833 0.0500732 0.18404968 0.10005286
-0.027301155 -0.09193087 -0.20507549 0.11195955 -0.17375687 -0.14468913 0.04771178 -0.18441392
-0.16985029 -0.10201435 -0.005651434 -0.23628534 -0.04848696 -0.09979709 0.15376644 -0.45559093
0.017519182 -0.2432057 0.26358455 0.099672906 -0.063758716 -0.22928971 -0.07939583 -0.29571578
-0.1531885 0.21625602 0.080727786 0.13845892 0.12773639 -0.057728607 -0.062034823 -0.26349193
0.011034129 -0.048097324 0.012088649 0.33032393 0.042759225 0.20969008 0.12139181 0.17071958
-0.15251532 0.30500236 0.1256083 0.019905409 -0.09921823 -0.040706206 0.05482423 0.16692822
0.02224764 -0.2233384 -0.25778303 -0.16236897 0.09295433 -0.0002007512 -0.110857986 -0.32358798
00000000: 6c98 1fbd dd81 163e ad70 08be 99e6 b3bd
00000010: 7c7f f9bd e31a 753e 8b7c cd3d c0eb 593c
00000020: f4fd 2cbf cac2 7fbe 38ac b23d ccf0 23be
00000030: fa45 4c3d 305e 8a3e 7dde 36be 0007 ab3c
00000040: 274f bb3c 6e53 b23e 9add 86bc b993 b03d
00000050: 5cbb 483d 91f2 1b3e 258b cdbc 703a 683d
00000060: 1eb2 cf3d d344 8bbd 7cd4 babd 9f7b 8dbd
00000070: e878 6bbe 64e2 73bb 932c 01be f787 503e
00000080: 9b49 993e c3f1 633e 89a4 82bd 84ca 653e
00000090: 1d90 70be 8094 ee3e ea8c 993e bd3e 87be
000000a0: fe22 2f3e 8be0 33be da7d 6bbd 7c23 c53d
000000b0: a60c 9fbe 7b3c 03be e04e 283e 9656 a83d
000000c0: 4696 3d3e 56fe 9a3e 9594 9e3e 1985 a2be
000000d0: 94a9 713e 4818 093e 15b2 e23d 07b2 00be
000000e0: 4b89 883d 871f ce3e 52c7 ab3c 3f01 f9bc
000000f0: 34ca fb3c 419f 933d 9e4e eebe a3e0 b23d
00000100: 10e2 3c3e 588b ba3e bf3d 53be 7e75 08be
00000110: ca48 193e a6ba d5b9 424d 5cbe 0114 e6bd
00000120: c9dd 27be db25 89be a6d9 8cbd 7a01 8f3c
00000130: f83d b73e e22d f23d fa2c ef3d 3465 123f
00000140: 2659 17be 0dc4 fabd 4a01 a4bd 0cc7 553e
00000150: 6cd6 2d3e a78a 1b3e ab81 cd3c 6eb9 5dbe
00000160: ffa6 053d 5d14 313d 45eb 08be e3be a33e
00000170: a0c5 b13d 0192 ef3e 937a 473e 60c0 263e
00000180: dbf1 363d 33b1 183b 377e 473d 3870 45be
00000190: 23df b6be 1f48 92bb bea1 74be 0430 76be
000001a0: 4f63 863d 1fbc 58be 6900 37be 1e99 a5bc
000001b0: b983 27be 4bae f23d 98f1 07be ff1d 5a3d
000001c0: 6241 0dbe 23ae bfba abd1 a3bb 2952 afbe
000001d0: 1e89 d73d 698c b6bd df7b 3cbe f13d ef3d
000001e0: 73ba 983e 0426 b73e bd9f 9fbd 12fc adbd
000001f0: ae78 d13e d3b1 013e 210f bdbe 64f3 30be
00000200: 112f dcbd fd68 87be e383 e63d c939 8d3e
00000210: 3e66 f4be 6f8e b63d d497 263e 6c18 fa3d
00000220: 5665 cf3e 5897 b33c 037a 0fb8 9cc9 413d
00000230: fa1d a63c 6a51 78be 8d4a c03d 17fa f53b
00000240: 4918 e63d 6886 69be 87e1 023f 08da 90be
00000250: 368f e5be e403 a7be d410 81be 9926 86be
00000260: 5e74 073e 73b9 c23e 3a31 edbd b62a c3bd
00000270: c69c 31bd bd9f 2dbe d167 b5bd cdab 3ebc
00000280: 4e63 fdbe 4111 7f3e 9eac e7bd 8e13 e5bd
00000290: e426 b63e 97a9 ddbd b9b9 c8be df8c 94bd
000002a0: 292f 9ebd 7284 b3bd d96d 843e 9d8b 6dbe
000002b0: 1a71 f6bd 5dfa 9ebe b39f 42bd 9bb1 92bd
000002c0: a8ee 3ebe a52a 7abe e5f9 973d 4c5f 3d3e
000002d0: c0bd 683e 21cd 743d 93f2 723e 57ae 603e
000002e0: 136d 9d3d 8d7b 0c3d 6509 293e 5097 c83d
000002f0: 593f eabd 6742 873e f386 c63d a76e 843e
00000300: bc8d 4cbd 3e6b c63e 5ffb 6d3e 29b1 d43e
00000310: c0d6 32bd 8e19 4d3d 8577 3c3e 84e8 cc3d
00000320: aca6 dfbc 4146 bcbd 4fff 51be 0c4b e53d
00000330: 52ed 31be 6329 14be 6d6d 433d 01d7 3cbe
00000340: 3ced 2dbe e6ec d0bd aa2f b9bb c9f4 71be
00000350: 439a 46bd 6b62 ccbd f374 1d3e 3743 e9be
00000360: 6384 8f3c ea0a 79be 8ef4 863e 4f21 cc3d
00000370: ee93 82bd ecca 6abe 489a a2bd 0f68 97be
00000380: 72dd 1cbe 3872 5d3e 9c54 a53d 2dc8 0d3e
00000390: 54cd 023e d574 6cbd 3a18 7ebd 6ae8 86be
000003a0: 7ec8 343c b301 45bd 780f 463c 3820 a93e
000003b0: 4c24 2f3d ffb8 563e 459c f83d 1dd1 2e3e
000003c0: fa2c 1cbe 4529 9c3e 769f 003e ab10 a33c
000003d0: ed32 cbbd 8dbb 26bd 5f8f 603d 3bef 2a3e
000003e0: af40 b63c d2b2 64be 23fc 83be 0d44 26be
000003f0: d75e be3d bd80 52b9 8309 e3bd 53ad a5be

bias f4 [64]
0.10132904 0.10265557 -0.035333805 -0.10755502 -0.093901224 0.11904345 -0.14635822 -0.11118328
-0.11033435 0.0009988555 -0.097124286 -0.10972539 0.1155156 -0.16891329 -0.121016726 0.07932329
0.118384816 0.08602839 0.1303005 -0.10442108 0.08189514 0.07451933 0.06353896 -0.08724472
-0.06720803 0.09045452 -0.087227084 -0.07930036 -0.115337044 0.087433495 -0.11651791 0.08685607
-0.09479037 -0.038186066 -0.09011033 -0.08585669 0.12668104 0.08039523 -0.01314161 0.086377375
0.09410173 -0.110435784 -0.09358225 -0.0683853 0.08298431 0.08625637 -0.111818746 0.06835107
0.06919343 -0.081316315 0.13000807 0.10584057 -0.10643745 0.09983763 -0.07931564 -0.09340106
-0.10371417 0.079281636 -0.12370964 0.09302579 0.1021379 -0.10825927 -0.09627595 -0.093313046
00000000: 9a85 cf3d 153d d23d 2eba 10bd ce45 dcbd
00000010: 494f c0bd 0dcd f33d eede 15be 0fb4 e3bd
00000020: faf6 e1bd 07ec 823a 19e9 c6bd b5b7 e0bd
00000030: 7193 ec3d 9bf7 2cbe 9ed7 f7bd 4074 a23d
00000040: bd73 f23d a72f b03d 7f6d 053e b8da d5bd
00000050: a4b8 a73d 979d 983d b720 823d 5cad b2bd
00000060: 5da4 89bd 3840 b93d 1da4 b2bd 3a68 a2bd
00000070: d435 ecbd 5510 b33d f1a0 eebd 98e1 b13d
00000080: 7421 c2bd fe68 1cbd c48b b8bd a2d5 afbd
00000090: adb8 013e 41a6 a43d e84f 57bc 9fe6 b03d
000000a0: 68b8 c03d 282c e2bd 0da8 bfbd 980d 8cbd
000000b0: aef3 a93d 2ea7 b03d 3a01 e5bd a5fb 8b3d
000000c0: 49b5 8d3d 2b89 a6bd d620 053e f1c2 d83d
000000d0: e1fb d9bd ac77 cc3d 3d70 a2bd 0e49 bfbd
000000e0: 1868 d4bd 695e a23d 7b5b fdbd 4e84 be3d
000000f0: ad2d d13d 09b7 ddbd 532c c5bd e91a bfbd

weight f4 [64, 64]
-0.029931352 -0.12124096 -0.06624696 0.052202765 0.14697535 -0.011436736 -0.06260202 -0.074441455
-0.032594457 0.17011589 0.11266261 0.09534088 -0.15955877 -0.21599883 0.012182862 0.035686318
0.13604614 0.007983508 -0.012447828 0.030789632 0.031501513 0.0841928 0.022189587 -0.15878029
0.062603064 0.3325361 -0.24214117 -0.116752915 -0.0837016 0.18230516 0.0033025444 -0.096812725
0.1071616 -0.18704619 0.18231983 -0.13996138 -0.008413825 -0.09527422 -0.15624559 -0.08868478
0.1462312 0.21112911 0.016889365 0.15897489 0.20687294 -0.050026324 -0.13590394 0.04717645
0.30455387 -0.02902491 0.15865876 -0.021093063 -0.03565954 -0.006565134 -0.00041179292 -0.13691086
0.17690012 -0.13055974 -0.027705686 -0.14569992 -0.1457318 -0.069868244 0.053328186 -0.05304941
0.20496078 0.042218488 0.23663223 -0.04537388 -0.029177831 0.124113545 -0.08690285 0.02306993
-0.17931746 -0.31458732 -0.15428317 0.3205775 0.07977737 -0.04046836 -0.074916326 0.103550054
0.088027775 0.19897391 -0.091757506 0.007555039 0.18390098 0.22500904 0.01920709 -0.24185431
-0.06728067 -0.13118376 -0.10280418 0.26411587 -0.05125675 0.07640994 -0.05490834 0.051399868
-0.13375531 -0.057653386 -0.1494945 -0.060804233 -0.02979025 0.17341383 -0.13353597 0.27038637
0.2055396 -0.019613307 -0.26551157 -0.09450819 0.079153806 -0.031910844 -0.01926639 0.08053262
0.08427458 0.086357884 0.0064856936 0.13799678 -0.12454777 0.22301677 -0.0796353 -0.17501517
0.038712855 0.007963056 0.018757902 0.21277478 -0.025247935 0.019585859 -0.12021758 -0.09367213
0.060455877 0.12287711 -0.057187326 -0.13384299 -0.118503876 0.1458424 -0.14521612 -0.15751325
-0.02168415 -0.08833385 -0.17211963 -0.06388107 0.013803848 0.09766903 0.0753543 0.0065184203
0.1704367 -0.04941389 -0.065897904 -0.00015413195 -0.17615499 0.054673783 0.08794149 0.15885045
-0.046702962 -0.12235989 -0.21032852 -0.1985137 0.022062473 -0.073094845 0.18830977 -0.076978214
-0.195715 -0.020639036 -0.0676471 0.18285957 0.20921564 -0.2461542 0.014084602 0.08929796
-0.11224251 0.09547683 -0.11862477 -0.095056474 0.22871451 0.070948124 -0.11248779 0.05021717
0.2845487 0.013240919 0.1649792 -0.03130676 -0.22176759 0.12562728 0.0034124695 -0.13735026
-0.10391868 0.049046423 -0.010292372 0.050489087 0.15994948 0.16368026 -0.22610348 0.14006148
-0.06906888 0.05736948 0.26148194 -0.09710974 0.057981968 -0.1026414 -0.019029407 -0.14868498
0.08842014 0.19749808 -0.16049254 -0.04764068 0.062053464 0.06276901 0.019421492 -0.12575738
-0.014763918 -0.06594196 0.0023851595 -0.14955597 -0.094043486 -0.12586507 0.044989966 0.07525774
0.14834628 -0.05729638 -0.06282667 0.03839782 -0.17351659 0.004056199 -0.20729825 0.14100768
-0.044441275 0.0053778747 -0.11327912 -0.10099061 -0.12862784 0.02669626 0.019927837 -0.060782045
0.14107546 -0.015526858 -0.059092667 0.02012727 0.22734109 0.09148568 0.26512572 0.09247528
-0.007981033 0.10825159 0.23290952 -0.037614696 0.16073908 0.39166722 0.1107943 0.16440035
0.11417177 -0.04088158 -0.22945789 -0.12118796 0.016093323 0.11815575 0.06529743 0.0247164
00000000: 9832 f5bc 2e4d f8bd 7cac 87bd 91d2 553d
00000010: b580 163e 2661 3bbc 7d35 80bd c374 98bd
00000020: c481 05bd dc32 2e3e a8bb e63d 1442 c33d
00000030: 6063 23be cc2e 5dbe a09a 473c d12b 123d
00000040: ae4f 0b3e 42cd 023c faf1 4bbc 8a3a fc3c
00000050: bb07 013d 466d ac3d f0c6 b53c 4d97 22be
00000060: 0936 803d 2c42 aa3e dbf3 77be 271c efbd
00000070: bf6b abbd 34ae 3a3e 806f 583b c045 c6bd
00000080: 8a77 db3d 0989 3fbe 0db2 3a3e 0952 0fbe
00000090: 24da 09bc 211f c3bd d8fe 1fbe 5ea0 b5bd
000000a0: a2bd 153e 3b32 583e 915b 8a3c 50ca 223e
000000b0: 80d6 533e 67e8 4cbd 672a 0bbe 183c 413d
000000c0: 7cee 9b3e a6c5 edbc 7177 223e 5ccb acbc
000000d0: bd0f 12bd 5620 d7bb e9e5 d7b9 5c32 0cbe
000000e0: 4e25 353e 74b1 05be 09f7 e2bc 5c32 15be
000000f0: b83a 15be 1517 8fbd a86e 5a3d 574a 59bd
00000100: 3de1 513e 4bed 2c3d b84f 723e f6d9 39bd
00000110: 5906 efbc 3e2f fe3d 1ffa b1bd 26fd bc3c
00000120: ff9e 37be 9711 a1be 68fc 1dbe bc22 a43e
00000130: 5162 a33d 27c2 25bd bb6d 99bd 0d12 d43d
00000140: e847 b43d d1bf 4b3e 5ceb bbbd 4390 f73b
00000150: 8a50 3c3e c568 663e 3058 9d3c a8a8 77be
00000160: 73ca 89bd 0955 06be ff8a d2bd 323a 873e
00000170: 99f2 51bd d17c 9c3d 91e7 60bd ab88 523d
00000180: 27f7 08be f525 6cbd 1615 19be dc0d 79bd
00000190: af0a f4bc 6593 313e a7bd 08be 1570 8a3e
000001a0: f978 523e 16ac a0bc 22f1 87be 838d c1bd
000001b0: 641b a23d f2b4 02bd 8cd4 9dbc 49ee a43d
000001c0: 2798 ac3d 67dc b03d f185 d43b 074f 0d3e
000001d0: e712 ffbd 825e 643e d517 a3bd 2d37 33be
000001e0: 5f91 1e3d 7a77 023c 2caa 993c a2e1 593e
000001f0: c2d4 cebc 8672 a03c a234 f6bd 2cd7 bfbd
00000200: 95a0 773d ffa6 fb3d 423d 6abd 230e 09be
00000210: 29b2 f2bd b657 153e 89b3 14be 274b 21be
00000220: f5a2 b1bc 61e8 b4bd 2140 30be 14d4 82bd
00000230: 8929 623c b306 c83d 5b53 9a3d 7998 d53b
00000240: f586 2e3e 3866 4abd 7bf5 86bd 7b9e 21b9
00000250: f961 34be 9ef1 5f3d ab1a b43d b1a9 223e
00000260: 9b4b 3fbd d297 fabd 5c60 57be 2d47 4bbe
00000270: 5cbc b43c c0b2 95bd 47d4 403e c1a6 9dbd
00000280: 8369 48be 3213 a9bc 908a 8abd 8a3f 3b3e
00000290: a03c 563e d90f 7cbe 1ac3 663c d9e1 b63d
000002a0: 67df e5bd 5b89 c33d 8bf1 f2bd f8ac c2bd
000002b0: 2334 6a3e 404d 913d 0060 e6bd 85b0 4d3d
000002c0: 5eb0 913e 71f0 583c 4ff0 283e 843b 00bd
000002d0: 0b17 63be 70a4 003e bda3 5f3b 8ca5 0cbe
000002e0: 51d3 d4bd e7e4 483d 56a1 28bc a5cd 4e3d
000002f0: ccc9 233e cc9b 273e ac87 67be 476c 0f3e
00000300: fc73 8dbd 43fc 6a3d f6e0 853e 79e1 c6bd
00000310: 807e 6d3d a835 d2bd 8fe3 9bbc e040 18be
00000320: 9e15 b53d f03c 4a3e 2858 24be e022 43bd
00000330: c62b 7e3d 0a8d 803d d219 9f3c 8bc6 00be
00000340: 5ce4 71bc 940c 87bd 5650 1c3b 3325 19be
00000350: df99 c0bd c6e2 00be 6647 383d bb20 9a3d
00000360: 16e8 173e 9caf 6abd 45ab 80bd 0847 1d3d
00000370: 55ae 31be dde9 843b fe45 54be 5164 103e
00000380: 0e08 36bd e238 b03b e2fe e7bd 2ad4 cebd
00000390: 04b7 03be 1db2 da3c b43f a33c 98f6 78bd
000003a0: 1676 103e 5d64 7ebc 270b 72bd f2e1 a43c
000003b0: 1acc 683e d85c bb3d 8fbe 873e ae63 bd3d
000003c0: e1c2 02bc 02b3 dd3d d57f 6e3e de11 1abd
000003d0: c998 243e 9b88 c83e 1fe8 e23d 9158 283e
000003e0: e4d2 e93d 7273 27bd 02f7 6abe 6531 f8bd
000003f0: 25d6 833c a4fb f13d a9ba 853d 0c7a ca3c

bias f4 [64]
0.017286208 0.04288303 -0.0029243533 0.012436446 -0.015010912 0.0030526922 -0.0072323605 -0.024315273
-0.01045982 -0.0039970926 -0.011485092 0.00893736 -0.023542916 0.061119154 -0.0072212517 0.021135924
0.025218245 0.04267838 -0.0022536789 0.07013886 0.010034137 0.052363783 0.0043438007 0.019909956
0.012833424 -0.028091969 0.06404532 -0.025863146 0.005668642 0.04420013 -0.009347869 -0.002608425
-0.021245467 0.012819469 -0.012291035 -0.033004675 -0.006251257 -0.05357838 -0.0054359566 0.020154487
0.029978117 -0.012442099 -0.00396402 0.00812871 0.047762368 -0.019413657 -0.016643668 0.004926125
-0.03237306 -0.036369972 -0.02490245 0.03793182 0.02190634 0.048874218 -0.040097255 -0.044847358
-0.017739484 -0.010849229 -0.029708069 0.005562276 -0.028856123 0.014766554 -0.03609982 0.0027961668
00000000: ce9b 8d3c 1ea6 2f3d 82a6 3fbb 3cc2 4b3c
00000010: 54f0 75bc ad0f 483b 70fd ecbb d330 c7bc
00000020: aa5f 2bbc 0bfa 82bb f82b 3cbc 016e 123c
00000030: 13dd c0bc 1458 7a3d 40a0 ecbb 3f25 ad3c
00000040: 7e96 ce3c 86cf 2e3d 75b2 13bb f6a4 8f3d
00000050: 3966 243c 687b 563d 7156 8e3b 341a a33c
00000060: 4843 523c 2121 e6bc 312a 833d f3de d3bc
00000070: 04c0 b93b 320b 353d ce27 19bc 1cf2 2abb
00000080: f90a aebc c008 523c 5660 49bc e92f 07bd
00000090: 58d7 ccbb 0175 5bbd 1c20 b2bb 061b a53c
000000a0: ab94 f53c f2d9 4bbc 9ce4 81bb 482e 053c
000000b0: 79a2 433d 6409 9fbc 4d58 88bc 556b a13b
000000c0: 9d99 04bd aef8 14bd 3900 ccbc 655e 1b3d
000000d0: ed74 b33c 5530 483d 053d 24bd ddb1 37bd
000000e0: 6552 91bc f7c0 31bc 565e f3bc c143 b63b
000000f0: ad63 ecbc 6bef 713c 68dd 13bd e53f 373b

weight f4 [1, 64]
0.0024594248 -0.061464306 0.07375393 -0.006270085 -0.19272281 0.011155589 -0.016709227 -0.16300024
-0.004480124 -0.23521537 -0.001270127 -0.014960108 0.004769453 -0.041926295 -0.010924877 0.026443286
0.0011857202 -0.054465886 0.004993197 -0.03256932 0.110514455 -0.038402103 0.0054779197 -0.081021935
-0.00015345146 -0.110184334 -0.09783654 -0.19739781 0.06299296 -0.12349422 0.003715204 -0.005069626
-0.05576568 0.25633 0.003593363 0.13902847 -0.072516225 0.0426206 -0.03845431 0.18810256
-0.025984935 0.042490408 -0.26610592 0.003957888 -0.022826921 -0.14519875 -0.15335616 -0.021865012
0.25851777 0.0068533123 0.0029198918 -0.13843638 0.055325285 -0.05246518 0.23088044 0.04223892
0.0018709633 -0.0050567975 0.11180491 0.014364069 -0.09851302 0.019304916 0.18971619 -0.0490454
00000000: 4d2e 213b ffc1 7bbd 4d0c 973d 4975 cdbb
00000010: 2159 45be eec5 363c cae1 88bc 89e9 26be
00000020: 01ce 92bb 4cdc 70be 647a a6ba 3e1b 75bc
00000030: 1249 9c3b e8ba 2bbd 41fe 32bc 979f d83c
00000040: 2b6a 9b3a 9f17 5fbd f99d a33b 6867 05bd
00000050: 6755 e23d 864b 1dbd 1f80 b33b d4ee a5bd
00000060: d0e7 20b9 53a8 e1bd 865e c8bd a722 4abe
00000070: 7402 813d 8aea fcbd c87a 733b 1b1f a6bb
00000080: 8e6a 64bd b03d 833e a17e 6b3b 7b5d 0e3e
00000090: 6383 94bd f092 2e3d 4482 1dbd f59d 403e
000000a0: 5cde d4bc 6c0a 2e3d 093f 88be 2cb1 813b
000000b0: 86ff babc fbae 14be 6609 1dbe 411e b3bc
000000c0: 715c 843e c091 e03b a85b 3f3b 44c2 0dbe
000000d0: c49c 623d bbe5 56bd ec6b 6c3e b802 2d3d
000000e0: 1c3b f53a 7eb3 a5bb f9f9 e43d 4657 6b3c
000000f0: 32c1 c9bd 5825 9e3c f644 423e d4e3 48bd
